lr=20*10e-4
lamba = 200
n_c = 10

(robotpower) ➜  hw11_gan_img_generation git:(master) ✗ python train_wgan_gp.py ~/Downloads/faces/ model
Generator(
  (l1): Sequential(
    (0): Linear(in_features=100, out_features=8192, bias=False)
    (1): BatchNorm1d(8192, eps=1e-05, momentum=0.1, affine=True, track_running_stats=True)
    (2): ReLU()
  )
  (l2_5): Sequential(
    (0): Sequential(
      (0): ConvTranspose2d(512, 256, kernel_size=(5, 5), stride=(2, 2), padding=(2, 2), output_padding=(1, 1), bias=False)
      (1): BatchNorm2d(256, eps=1e-05, momentum=0.1, affine=True, track_running_stats=True)
      (2): ReLU()
    )
    (1): Sequential(
      (0): ConvTranspose2d(256, 128, kernel_size=(5, 5), stride=(2, 2), padding=(2, 2), output_padding=(1, 1), bias=False)
      (1): BatchNorm2d(128, eps=1e-05, momentum=0.1, affine=True, track_running_stats=True)
      (2): ReLU()
    )
    (2): Sequential(
      (0): ConvTranspose2d(128, 64, kernel_size=(5, 5), stride=(2, 2), padding=(2, 2), output_padding=(1, 1), bias=False)
      (1): BatchNorm2d(64, eps=1e-05, momentum=0.1, affine=True, track_running_stats=True)
      (2): ReLU()
    )
    (3): ConvTranspose2d(64, 3, kernel_size=(5, 5), stride=(2, 2), padding=(2, 2), output_padding=(1, 1))
    (4): Tanh()
  )
)
Discriminator_noSigmoid(
  (ls): Sequential(
    (0): Conv2d(3, 64, kernel_size=(5, 5), stride=(2, 2), padding=(2, 2))
    (1): LeakyReLU(negative_slope=0.2)
    (2): Sequential(
      (0): Conv2d(64, 128, kernel_size=(5, 5), stride=(2, 2), padding=(2, 2))
      (1): BatchNorm2d(128, eps=1e-05, momentum=0.1, affine=True, track_running_stats=True)
      (2): LeakyReLU(negative_slope=0.2)
    )
    (3): Sequential(
      (0): Conv2d(128, 256, kernel_size=(5, 5), stride=(2, 2), padding=(2, 2))
      (1): BatchNorm2d(256, eps=1e-05, momentum=0.1, affine=True, track_running_stats=True)
      (2): LeakyReLU(negative_slope=0.2)
    )
    (4): Sequential(
      (0): Conv2d(256, 512, kernel_size=(5, 5), stride=(2, 2), padding=(2, 2))
      (1): BatchNorm2d(512, eps=1e-05, momentum=0.1, affine=True, track_running_stats=True)
      (2): LeakyReLU(negative_slope=0.2)
    )
    (5): Conv2d(512, 1, kernel_size=(4, 4), stride=(1, 1))
  )
)
dataset images len 71314
A sample in dataset torch.Size([3, 64, 64])
max and min in a image tensor(1.) tensor(-0.8039)
Epoch [1/40] 1115/1115 Loss_D: -11.8903 Loss_G: -20.4378 | Save some samples to ./log/Epoch_001.jpg.
Epoch [2/40] 1115/1115 Loss_D: -11.6828 Loss_G: -8.9039 | Save some samples to ./log/Epoch_002.jpg.
Epoch [3/40] 1115/1115 Loss_D: -2.3519 Loss_G: 3.0596 | Save some samples to ./log/Epoch_003.jpg.
…
