(robotpower) ➜  hw11_gan_img_generation git:(master) ✗ python train.py ~/Downloads/faces/ model
Generator_dropout(
  (l1): Sequential(
    (0): Linear(in_features=100, out_features=8192, bias=False)
    (1): BatchNorm1d(8192, eps=1e-05, momentum=0.1, affine=True, track_running_stats=True)
    (2): ReLU()
  )
  (l2_5): Sequential(
    (0): Sequential(
      (0): ConvTranspose2d(512, 256, kernel_size=(5, 5), stride=(2, 2), padding=(2, 2), output_padding=(1, 1), bias=False)
      (1): BatchNorm2d(256, eps=1e-05, momentum=0.1, affine=True, track_running_stats=True)
      (2): ReLU()
    )
    (1): Sequential(
      (0): ConvTranspose2d(256, 128, kernel_size=(5, 5), stride=(2, 2), padding=(2, 2), output_padding=(1, 1), bias=False)
      (1): BatchNorm2d(128, eps=1e-05, momentum=0.1, affine=True, track_running_stats=True)
      (2): ReLU()
    )
    (2): Sequential(
      (0): ConvTranspose2d(128, 64, kernel_size=(5, 5), stride=(2, 2), padding=(2, 2), output_padding=(1, 1), bias=False)
      (1): BatchNorm2d(64, eps=1e-05, momentum=0.1, affine=True, track_running_stats=True)
      (2): ReLU()
    )
    (3): Dropout(p=0.5)
    (4): ConvTranspose2d(64, 3, kernel_size=(5, 5), stride=(2, 2), padding=(2, 2), output_padding=(1, 1))
    (5): Tanh()
  )
)
Discriminator_dropout(
  (ls): Sequential(
    (0): Conv2d(3, 64, kernel_size=(5, 5), stride=(2, 2), padding=(2, 2))
    (1): LeakyReLU(negative_slope=0.2)
    (2): Sequential(
      (0): Conv2d(64, 128, kernel_size=(5, 5), stride=(2, 2), padding=(2, 2))
      (1): BatchNorm2d(128, eps=1e-05, momentum=0.1, affine=True, track_running_stats=True)
      (2): LeakyReLU(negative_slope=0.2)
    )
    (3): Sequential(
      (0): Conv2d(128, 256, kernel_size=(5, 5), stride=(2, 2), padding=(2, 2))
      (1): BatchNorm2d(256, eps=1e-05, momentum=0.1, affine=True, track_running_stats=True)
      (2): LeakyReLU(negative_slope=0.2)
    )
    (4): Sequential(
      (0): Conv2d(256, 512, kernel_size=(5, 5), stride=(2, 2), padding=(2, 2))
      (1): BatchNorm2d(512, eps=1e-05, momentum=0.1, affine=True, track_running_stats=True)
      (2): LeakyReLU(negative_slope=0.2)
    )
    (5): Dropout(p=0.5)
    (6): Conv2d(512, 1, kernel_size=(4, 4), stride=(1, 1))
    (7): Sigmoid()
  )
)
dataset images len 71314
A sample in dataset torch.Size([3, 64, 64])
max and min in a image tensor(1.) tensor(-0.8039)
Epoch [1/30] 1115/1115 Loss_D: 0.3469 Loss_G: 3.0854 | Save some samples to ./log/Epoch_001.jpg.
Epoch [2/30] 1115/1115 Loss_D: 0.0484 Loss_G: 3.9228 | Save some samples to ./log/Epoch_002.jpg.
Epoch [3/30] 1115/1115 Loss_D: 0.3134 Loss_G: 3.5009 | Save some samples to ./log/Epoch_003.jpg.
…
