(robotpower) ➜  hw7_network_compression_tohw3 git:(master) ✗ python train_from_scratch.py ~/Downloads/food-11
Reading data
loading training 9866 32
loading validation 3430 32
StudentNet(
  (cnn): Sequential(
    (0): Sequential(
      (0): Conv2d(3, 16, kernel_size=(3, 3), stride=(1, 1), padding=(1, 1))
      (1): BatchNorm2d(16, eps=1e-05, momentum=0.1, affine=True, track_running_stats=True)
      (2): ReLU6()
      (3): MaxPool2d(kernel_size=2, stride=2, padding=0, dilation=1, ceil_mode=False)
    )
    (1): Sequential(
      (0): Conv2d(16, 16, kernel_size=(3, 3), stride=(1, 1), padding=(1, 1), groups=2)
      (1): BatchNorm2d(16, eps=1e-05, momentum=0.1, affine=True, track_running_stats=True)
      (2): ReLU6()
      (3): Conv2d(16, 32, kernel_size=(1, 1), stride=(1, 1))
      (4): MaxPool2d(kernel_size=2, stride=2, padding=0, dilation=1, ceil_mode=False)
    )
    (2): Sequential(
      (0): Conv2d(32, 32, kernel_size=(3, 3), stride=(1, 1), padding=(1, 1), groups=2)
      (1): BatchNorm2d(32, eps=1e-05, momentum=0.1, affine=True, track_running_stats=True)
      (2): ReLU6()
      (3): Conv2d(32, 64, kernel_size=(1, 1), stride=(1, 1))
      (4): MaxPool2d(kernel_size=2, stride=2, padding=0, dilation=1, ceil_mode=False)
    )
    (3): Sequential(
      (0): Conv2d(64, 64, kernel_size=(3, 3), stride=(1, 1), padding=(1, 1), groups=2)
      (1): BatchNorm2d(64, eps=1e-05, momentum=0.1, affine=True, track_running_stats=True)
      (2): ReLU6()
      (3): Conv2d(64, 128, kernel_size=(1, 1), stride=(1, 1))
      (4): MaxPool2d(kernel_size=2, stride=2, padding=0, dilation=1, ceil_mode=False)
    )
    (4): Sequential(
      (0): Conv2d(128, 128, kernel_size=(3, 3), stride=(1, 1), padding=(1, 1), groups=2)
      (1): BatchNorm2d(128, eps=1e-05, momentum=0.1, affine=True, track_running_stats=True)
      (2): ReLU6()
      (3): Conv2d(128, 128, kernel_size=(1, 1), stride=(1, 1))
    )
    (5): Sequential(
      (0): Conv2d(128, 128, kernel_size=(3, 3), stride=(1, 1), padding=(1, 1), groups=2)
      (1): BatchNorm2d(128, eps=1e-05, momentum=0.1, affine=True, track_running_stats=True)
      (2): ReLU6()
      (3): Conv2d(128, 256, kernel_size=(1, 1), stride=(1, 1))
    )
    (6): AdaptiveAvgPool2d(output_size=(1, 1))
  )
  (fc): Sequential(
    (0): Linear(in_features=256, out_features=11, bias=True)
  )
)
epoch   0: train loss: 2.0233, acc 0.2856 valid loss: 1.9956, acc 0.3327
epoch   1: train loss: 1.8870, acc 0.3299 valid loss: 1.7867, acc 0.3636
epoch   2: train loss: 1.8400, acc 0.3557 valid loss: 1.7832, acc 0.3866
epoch   3: train loss: 1.8000, acc 0.3611 valid loss: 1.7425, acc 0.3985
epoch   4: train loss: 1.7681, acc 0.3812 valid loss: 1.8338, acc 0.3822
…
