Adam lr = 2*10e-3
(robotpower) ➜  hw7_network_compression_tohw3 git:(master) ✗ python knowledge_distillation.py ~/Downloads/food-11
Reading data
loading training 9866 32
loading validation 3430 32
StudentNet(
  (cnn): Sequential(
    (0): Sequential(
      (0): Conv2d(3, 16, kernel_size=(3, 3), stride=(1, 1), padding=(1, 1))
      (1): BatchNorm2d(16, eps=1e-05, momentum=0.1, affine=True, track_running_stats=True)
      (2): ReLU6()
      (3): MaxPool2d(kernel_size=2, stride=2, padding=0, dilation=1, ceil_mode=False)
    )
    (1): Sequential(
      (0): Conv2d(16, 16, kernel_size=(3, 3), stride=(1, 1), padding=(1, 1), groups=16)
      (1): BatchNorm2d(16, eps=1e-05, momentum=0.1, affine=True, track_running_stats=True)
      (2): ReLU6()
      (3): Conv2d(16, 32, kernel_size=(1, 1), stride=(1, 1))
      (4): MaxPool2d(kernel_size=2, stride=2, padding=0, dilation=1, ceil_mode=False)
    )
    (2): Sequential(
      (0): Conv2d(32, 32, kernel_size=(3, 3), stride=(1, 1), padding=(1, 1), groups=32)
      (1): BatchNorm2d(32, eps=1e-05, momentum=0.1, affine=True, track_running_stats=True)
      (2): ReLU6()
      (3): Conv2d(32, 64, kernel_size=(1, 1), stride=(1, 1))
      (4): MaxPool2d(kernel_size=2, stride=2, padding=0, dilation=1, ceil_mode=False)
    )
    (3): Sequential(
      (0): Conv2d(64, 64, kernel_size=(3, 3), stride=(1, 1), padding=(1, 1), groups=64)
      (1): BatchNorm2d(64, eps=1e-05, momentum=0.1, affine=True, track_running_stats=True)
      (2): ReLU6()
      (3): Conv2d(64, 128, kernel_size=(1, 1), stride=(1, 1))
    )
    (4): Sequential(
      (0): Conv2d(128, 128, kernel_size=(3, 3), stride=(1, 1), padding=(1, 1), groups=128)
      (1): BatchNorm2d(128, eps=1e-05, momentum=0.1, affine=True, track_running_stats=True)
      (2): ReLU6()
      (3): Conv2d(128, 128, kernel_size=(1, 1), stride=(1, 1))
    )
    (5): Sequential(
      (0): Conv2d(128, 128, kernel_size=(3, 3), stride=(1, 1), padding=(1, 1), groups=128)
      (1): BatchNorm2d(128, eps=1e-05, momentum=0.1, affine=True, track_running_stats=True)
      (2): ReLU6()
      (3): Conv2d(128, 128, kernel_size=(1, 1), stride=(1, 1))
      (4): MaxPool2d(kernel_size=2, stride=2, padding=0, dilation=1, ceil_mode=False)
    )
    (6): Sequential(
      (0): Conv2d(128, 128, kernel_size=(3, 3), stride=(1, 1), padding=(1, 1), groups=128)
      (1): BatchNorm2d(128, eps=1e-05, momentum=0.1, affine=True, track_running_stats=True)
      (2): ReLU6()
      (3): Conv2d(128, 256, kernel_size=(1, 1), stride=(1, 1))
    )
    (7): Sequential(
      (0): Conv2d(256, 256, kernel_size=(3, 3), stride=(1, 1), padding=(1, 1), groups=256)
      (1): BatchNorm2d(256, eps=1e-05, momentum=0.1, affine=True, track_running_stats=True)
      (2): ReLU6()
      (3): Conv2d(256, 256, kernel_size=(1, 1), stride=(1, 1))
    )
    (8): Sequential(
      (0): Conv2d(256, 256, kernel_size=(3, 3), stride=(1, 1), padding=(1, 1), groups=256)
      (1): BatchNorm2d(256, eps=1e-05, momentum=0.1, affine=True, track_running_stats=True)
      (2): ReLU6()
      (3): Conv2d(256, 256, kernel_size=(1, 1), stride=(1, 1))
    )
    (9): AdaptiveAvgPool2d(output_size=(1, 1))
  )
  (fc): Sequential(
    (0): Linear(in_features=256, out_features=11, bias=True)
  )
)
epoch   0: train loss: 15.3744, acc 0.2862 valid loss: 19.5050, acc 0.2636
epoch   1: train loss: 13.9102, acc 0.3755 valid loss: 15.1109, acc 0.4239
epoch   2: train loss: 13.0505, acc 0.4121 valid loss: 15.0481, acc 0.4294
epoch   3: train loss: 12.2922, acc 0.4530 valid loss: 12.1873, acc 0.5125
epoch   4: train loss: 11.6710, acc 0.4900 valid loss: 11.9816, acc 0.5227
…
